…
2023-03-06 08:36:51 - data.newsgroups - INFO - regrouped label (19997,)
2023-03-06 08:36:52 - utils._noise - DEBUG - 6, 7
2023-03-06 08:36:52 - utils._noise - DEBUG - 13997
2023-03-06 08:36:52 - utils._noise - INFO - Actual noise 0.20
2023-03-06 08:36:52 - utils._noise - DEBUG - [[… 2023-03-06 08:36:52 - data.newsgroups - INFO - label precision: 0.8033149960705865
2023-03-06 08:36:54 - data.newsgroups - INFO - regrouped label (19997,)
2023-03-06 08:36:54 - __main__ - INFO - Loading dataset...
2023-03-06 08:36:54 - __main__ - INFO - Building model...
2023-03-06 08:36:58 - __main__ - INFO - <bound method Module.parameters of NewsNetCNN(
  (embedding): Embedding(20000, 300)
  (convs): ModuleList(
    (0): Conv2d(1, 300, kernel_size=(3, 300), stride=(1, 1))
    (1): Conv2d(1, 300, kernel_size=(4, 300), stride=(1, 1))
    (2): Conv2d(1, 300, kernel_size=(5, 300), stride=(1, 1))
  )
  (dropout): Dropout(p=0.25, inplace=False)
  (linear): Linear(in_features=900, out_features=7, bias=True)
)>
2023-03-06 08:36:58 - __main__ - INFO - <bound method Module.parameters of NewsNetCNN(
  (embedding): Embedding(20000, 300)
  (convs): ModuleList(
    (0): Conv2d(1, 300, kernel_size=(3, 300), stride=(1, 1))
    (1): Conv2d(1, 300, kernel_size=(4, 300), stride=(1, 1))
    (2): Conv2d(1, 300, kernel_size=(5, 300), stride=(1, 1))
  )
  (dropout): Dropout(p=0.25, inplace=False)
  (linear): Linear(in_features=900, out_features=7, bias=True)
)>
2023-03-06 08:36:58 - __main__ - INFO - log directory : logs/\news\coteaching_plus
2023-03-06 08:36:58 - __main__ - INFO - Start train & evaluate
2023-03-06 08:36:58 - __main__ - INFO - Epoch [0/100]
2023-03-06 08:39:58 - utils._utils - DEBUG - [Args] (seed: 1), (model1: None), (model2: None), (noise_rate: 0.2)
2023-03-06 08:40:14 - utils._utils - DEBUG - [Args] (seed: 1), (model1: None), (model2: None), (noise_rate: 0.2)
…
2023-03-07 08:48:07 - data.newsgroups - INFO - regrouped label (19997,)
2023-03-07 08:48:08 - utils._noise - DEBUG - 6, 7
2023-03-07 08:48:08 - utils._noise - DEBUG - 13997
2023-03-07 08:48:08 - utils._noise - INFO - Actual noise 0.20
2023-03-07 08:48:08 - utils._noise - DEBUG - [[… 2023-03-07 08:48:08 - data.newsgroups - INFO - label precision: 0.8033149960705865
2023-03-07 08:48:10 - data.newsgroups - INFO - regrouped label (19997,)
2023-03-07 08:48:10 - __main__ - INFO - Loading dataset...
2023-03-07 08:48:10 - __main__ - INFO - Building model...
2023-03-07 08:48:13 - __main__ - INFO - <bound method Module.parameters of NewsNetCNN(
  (embedding): Embedding(20000, 300)
  (convs): ModuleList(
    (0): Conv2d(1, 300, kernel_size=(3, 300), stride=(1, 1))
    (1): Conv2d(1, 300, kernel_size=(4, 300), stride=(1, 1))
    (2): Conv2d(1, 300, kernel_size=(5, 300), stride=(1, 1))
  )
  (dropout): Dropout(p=0.25, inplace=False)
  (linear): Linear(in_features=900, out_features=7, bias=True)
)>
2023-03-07 08:48:15 - __main__ - INFO - <bound method Module.parameters of NewsNetLSTM(
  (embedding): Embedding(20000, 300)
  (bi_lstm): LSTM(300, 300, batch_first=True, bidirectional=True)
  (linear): Linear(in_features=600, out_features=7, bias=True)
)>
2023-03-07 08:48:15 - __main__ - INFO - log directory : logs/\news\coteaching
2023-03-07 08:48:15 - __main__ - INFO - Start train & evaluate
2023-03-07 08:48:15 - __main__ - INFO - Epoch [0/100]
2023-03-07 08:48:21 - trainer._trainer - INFO - 	Step [001/109] Loss_1: 0.0164, Loss_2: 0.0152, Acc_1: 0.1641, Acc_2: 0.0625, 
2023-03-07 08:48:28 - trainer._trainer - INFO - 	Step [011/109] Loss_1: 0.0125, Loss_2: 0.0139, Acc_1: 0.5156, Acc_2: 0.3125, 
…
2023-03-07 16:55:15 - data.newsgroups - INFO - regrouped label (19997,)
2023-03-07 16:55:15 - utils._noise - DEBUG - 6, 7
2023-03-07 16:55:15 - utils._noise - DEBUG - 13997
2023-03-07 16:55:16 - utils._noise - INFO - Actual noise 0.20
2023-03-07 16:55:16 - utils._noise - DEBUG - [[… 2023-03-07 16:55:16 - data.newsgroups - INFO - label precision: 0.8033149960705865
2023-03-07 16:55:17 - data.newsgroups - INFO - regrouped label (19997,)
2023-03-07 16:55:17 - __main__ - INFO - Loading dataset...
2023-03-07 16:55:17 - __main__ - INFO - Building model...
2023-03-07 16:55:17 - __main__ - INFO - <bound method Module.parameters of NewsNetCNN(
  (embedding): Embedding(20000, 300)
  (convs): ModuleList(
    (0): Conv2d(1, 300, kernel_size=(3, 300), stride=(1, 1))
    (1): Conv2d(1, 300, kernel_size=(4, 300), stride=(1, 1))
    (2): Conv2d(1, 300, kernel_size=(5, 300), stride=(1, 1))
  )
  (dropout): Dropout(p=0.25, inplace=False)
  (linear): Linear(in_features=900, out_features=7, bias=True)
)>
2023-03-07 16:55:18 - __main__ - INFO - <bound method Module.parameters of NewsNet(
  (embedding): Embedding(20000, 300)
  (avgpool): AdaptiveAvgPool1d(output_size=4800)
  (fc1): Linear(in_features=4800, out_features=1200, bias=True)
  (bn1): BatchNorm1d(1200, eps=1e-05, momentum=0.1, affine=True, track_running_stats=True)
  (ac): Softsign()
  (fc2): Linear(in_features=1200, out_features=300, bias=True)
  (bn2): BatchNorm1d(300, eps=1e-05, momentum=0.1, affine=True, track_running_stats=True)
  (fc3): Linear(in_features=300, out_features=7, bias=True)
)>
2023-03-07 16:55:18 - __main__ - INFO - log directory : logs/\news\coteaching
2023-03-07 16:55:18 - __main__ - INFO - Start train & evaluate
2023-03-07 16:55:18 - __main__ - INFO - Epoch [0/100]
2023-03-07 16:55:23 - trainer._trainer - INFO - 	Step [001/109] Loss_1: 0.0161, Loss_2: 0.0153, Acc_1: 0.1250, Acc_2: 0.1797, 
2023-03-07 16:55:27 - trainer._trainer - INFO - 	Step [011/109] Loss_1: 0.0131, Loss_2: 0.0142, Acc_1: 0.3516, Acc_2: 0.2969, 
…
2023-03-08 16:04:01 - data.newsgroups - INFO - regrouped label (19997,)
2023-03-08 16:04:01 - utils._noise - DEBUG - 6, 7
2023-03-08 16:04:01 - utils._noise - DEBUG - 13997
2023-03-08 16:04:01 - utils._noise - INFO - Actual noise 0.20
2023-03-08 16:04:01 - utils._noise - DEBUG - [[… 2023-03-08 16:04:01 - data.newsgroups - INFO - label precision: 0.8033149960705865
2023-03-08 16:04:03 - data.newsgroups - INFO - regrouped label (19997,)
2023-03-08 16:04:03 - __main__ - INFO - Loading dataset...
2023-03-08 16:04:03 - __main__ - INFO - Building model...
2023-03-08 16:04:03 - __main__ - INFO - <bound method Module.parameters of NewsNetLSTM(
  (embedding): Embedding(20000, 300)
  (bi_lstm): LSTM(300, 300, batch_first=True, bidirectional=True)
  (linear): Linear(in_features=600, out_features=7, bias=True)
)>
2023-03-08 16:04:03 - __main__ - INFO - <bound method Module.parameters of NewsNet(
  (embedding): Embedding(20000, 300)
  (avgpool): AdaptiveAvgPool1d(output_size=4800)
  (fc1): Linear(in_features=4800, out_features=1200, bias=True)
  (bn1): BatchNorm1d(1200, eps=1e-05, momentum=0.1, affine=True, track_running_stats=True)
  (ac): Softsign()
  (fc2): Linear(in_features=1200, out_features=300, bias=True)
  (bn2): BatchNorm1d(300, eps=1e-05, momentum=0.1, affine=True, track_running_stats=True)
  (fc3): Linear(in_features=300, out_features=7, bias=True)
)>
2023-03-08 16:04:03 - __main__ - INFO - log directory : logs/\news\coteaching
2023-03-08 16:04:03 - __main__ - INFO - Start train & evaluate
2023-03-08 16:04:03 - __main__ - INFO - Epoch [0/100]
2023-03-08 16:04:09 - trainer._trainer - INFO - 	Step [001/109] Loss_1: 0.0151, Loss_2: 0.0155, Acc_1: 0.1641, Acc_2: 0.1641, 
2023-03-08 16:04:12 - trainer._trainer - INFO - 	Step [011/109] Loss_1: 0.0133, Loss_2: 0.0146, Acc_1: 0.2969, Acc_2: 0.2891, 
…
2023-03-08 20:30:37 - data.newsgroups - INFO - regrouped label (19997,)
2023-03-08 20:30:37 - utils._noise - DEBUG - 6, 7
2023-03-08 20:30:37 - utils._noise - DEBUG - 13997
2023-03-08 20:30:37 - utils._noise - INFO - Actual noise 0.20
2023-03-08 20:30:37 - utils._noise - DEBUG - [[… 2023-03-08 20:30:37 - data.newsgroups - INFO - label precision: 0.8033149960705865
2023-03-08 20:30:39 - data.newsgroups - INFO - regrouped label (19997,)
2023-03-08 20:30:39 - __main__ - INFO - Loading dataset...
2023-03-08 20:30:39 - __main__ - INFO - Building model...
2023-03-08 20:30:39 - __main__ - INFO - <bound method Module.parameters of NewsNet(
  (embedding): Embedding(20000, 300)
  (avgpool): AdaptiveAvgPool1d(output_size=4800)
  (fc1): Linear(in_features=4800, out_features=1200, bias=True)
  (bn1): BatchNorm1d(1200, eps=1e-05, momentum=0.1, affine=True, track_running_stats=True)
  (ac): Softsign()
  (fc2): Linear(in_features=1200, out_features=300, bias=True)
  (bn2): BatchNorm1d(300, eps=1e-05, momentum=0.1, affine=True, track_running_stats=True)
  (fc3): Linear(in_features=300, out_features=7, bias=True)
)>
2023-03-08 20:30:39 - __main__ - INFO - <bound method Module.parameters of NewsNet(
  (embedding): Embedding(20000, 300)
  (avgpool): AdaptiveAvgPool1d(output_size=4800)
  (fc1): Linear(in_features=4800, out_features=1200, bias=True)
  (bn1): BatchNorm1d(1200, eps=1e-05, momentum=0.1, affine=True, track_running_stats=True)
  (ac): Softsign()
  (fc2): Linear(in_features=1200, out_features=300, bias=True)
  (bn2): BatchNorm1d(300, eps=1e-05, momentum=0.1, affine=True, track_running_stats=True)
  (fc3): Linear(in_features=300, out_features=7, bias=True)
)>
2023-03-08 20:30:39 - __main__ - INFO - log directory : logs/\news\coteaching
2023-03-08 20:30:39 - __main__ - INFO - Start train & evaluate
2023-03-08 20:30:39 - __main__ - INFO - Epoch [0/100]
2023-03-08 20:30:44 - trainer._trainer - INFO - 	Step [001/109] Loss_1: 0.0155, Loss_2: 0.0157, Acc_1: 0.1172, Acc_2: 0.0938, 
2023-03-08 20:30:44 - trainer._trainer - INFO - 	Step [011/109] Loss_1: 0.0146, Loss_2: 0.0144, Acc_1: 0.3125, Acc_2: 0.3281, 
…
